models/gat_cobo_model.pth (torch, 33368 bytes, 9 tensors)

fcs.0.weight f4 [55, 64]
0	0xbcb752df	-0.022378383
1	0x3d92a762	0.07160832
2	0xbd7db505	-0.06194021
3	0xbd67ae4a	-0.0565627
4	0xbe09954a	-0.13435856
5	0xbd52b208	-0.051439315
6	0xbdc1344e	-0.094338045
7	0x3ce39554	0.027781166
8	0x3dcb6c8e	0.099328145
9	0xbd11d1df	-0.03560054
10	0xbd92d99c	-0.07170412
11	0xbd08890b	-0.03333382
12	0x3ca2d12a	0.019875128
13	0xbd230214	-0.039796904
14	0xbd266472	-0.040623136
15	0xbd469293	-0.048479628
16	0xbe0cc60c	-0.13747424
17	0xbda96121	-0.08270479
18	0xbdac7b51	-0.08421958
19	0xbd28828f	-0.041140135
20	0xbd980a35	-0.07423822
21	0xbd23bbc6	-0.039973997
22	0xbc2490b2	-0.010044264
23	0xbcc17cb8	-0.02361904
24	0x3b2f685a	0.002676508
25	0xbe1bdd05	-0.15221031
26	0xbda60a52	-0.08107437
27	0x3d7905eb	0.06079666
28	0xbc9f213e	-0.01942503
29	0x3ae1fe57	0.0017241937
30	0x3cf33614	0.029688872
31	0xbd9f8b65	-0.07790259
32	0xbc772ba7	-0.015086091
33	0xbd8272a5	-0.06369523
34	0xbdea6965	-0.11445884
35	0xbdcfa601	-0.101390846
36	0xbd81d19c	-0.06338808
37	0xbd924131	-0.071413405
38	0xbd992bf8	-0.074790895
39	0x3d08513d	0.0332806
40	0xbd39c335	-0.04535218
41	0x3d270e0d	0.040784884
42	0xbbaf0c18	-0.005342018
43	0xbd40e88f	-0.047096785
44	0xbdf92d09	-0.12166793
45	0x3ccac7fb	0.024753561
46	0x3d096485	0.03354313
47	0xbd7f8015	-0.062378008
48	0x3c4420e8	0.011970736
49	0xbdedb016	-0.11605851
50	0xbbecb80e	-0.0072240895
51	0x3d62c2cc	0.055361554
52	0xbdbf4162	-0.09338643
53	0xbdf7098b	-0.12062367
54	0xbd9cd23e	-0.07657288
55	0xbd673c54	-0.056454018
56	0xbc9be332	-0.019029234
57	0xbdc8793c	-0.097887486
58	0xbda89c75	-0.08232967
59	0x3bea501c	0.007150663
60	0x3cb0bc4c	0.021574162
61	0xbc1914d2	-0.009343343
62	0xbce8b928	-0.028408602
63	0x3de9fc3d	0.11425064
64	0x3b9d17c9	0.004794095
65	0x3d4ea09c	0.050446138
66	0x3d022545	0.031773824
67	0xbe334eea	-0.17510572
68	0x3ccf8291	0.025330814
69	0xbbb93884	-0.005652489
70	0xbe212634	-0.1573723
71	0x3deaa56b	0.11457332
72	0x3de8dcbf	0.11370229
73	0xbe037201	-0.12836458
74	0x3d73a535	0.059483726
75	0xbd198277	-0.037477937
76	0x3e1cad60	0.15300512
77	0x3dd14264	0.10217741
78	0xbe0430fa	-0.12909308
79	0xbe3d39c2	-0.18479064
80	0x3cfd9a00	0.030957222
81	0xbe18a700	-0.14907455
82	0xbdf8fa80	-0.12157154
83	0x3db20e86	0.086941764
84	0xbcd45413	-0.025918996
85	0xbdc0a368	-0.09406167
86	0xbdec72d2	-0.11545338
87	0x3d8c5a19	0.06853122
88	0xbe0fbfff	-0.14038084
89	0x3ded1bdb	0.11577579
90	0xbd4a080f	-0.04932409
91	0x3df39d1c	0.118952006
92	0xbe102ca3	-0.14079528
93	0xbdc8291e	-0.097734675
94	0x3e1b5731	0.1516998
95	0x3da6058a	0.08106525
96	0x3d807820	0.06272912
97	0xbd1edc1c	-0.03878413
98	0x3c82ce21	0.01596743
99	0xbd9729a1	-0.07380987
100	0xbde3be53	-0.11120286
101	0x3c39c94c	0.011339497
102	0x3db4a594	0.08820644
103	0xbd254781	-0.040351395
104	0xbd9561ee	-0.07294069
105	0xbdac5a10	-0.084156156
106	0x3e0376a8	0.12838233
107	0xbe3684ce	-0.17824098
108	0xbe4974f0	-0.19673514
109	0x3e12b51b	0.14326899
110	0x3db37639	0.087627836
111	0xbda9a087	-0.08282571
112	0x3dd93a2a	0.10606797
113	0xbe69f1aa	-0.22846094
114	0x3e090151	0.13379408
115	0x3e0f413d	0.1398973
116	0xbd4e2966	-0.05033245
117	0x3ce11a19	0.027478265
118	0x3dc6ba58	0.09703511
119	0xbd4fa0d9	-0.050690506
120	0x3e05d9d0	0.1307137
121	0xbddd6c8f	-0.108117215
122	0xbe553916	-0.20822558
123	0x3d258ae0	0.040415645
124	0x3db63798	0.088973224
125	0x3dd09ae5	0.10185794
126	0xbe6b33d3	-0.22968988
127	0xbd6e1367	-0.058123972
128	0xbc40a62b	-0.0117583675
129	0x3b6c4600	0.0036052465
130	0x3e5cefbb	0.21575825
131	0xbd30bc54	-0.043148354
132	0x3da0b01a	0.07846089
133	0x3e0567d8	0.13027894
134	0xbd071497	-0.03297862
135	0x3d2234e6	0.03960123
136	0x3b977973	0.004622632
137	0xbc8ca012	-0.017166171
138	0xbe32ec83	-0.17473035
139	0x3e0b0521	0.13576175
140	0xbce74943	-0.028233176
141	0xbd780d37	-0.060559478
142	0x3d567adc	0.05236326
143	0xbd3e6d65	-0.046491046
144	0x3d28e516	0.0412341
145	0xbd9e58ae	-0.07731758
146	0xbdb2453d	-0.087046124
147	0xbe115b3b	-0.14194958
148	0x3ddecdc4	0.108790904
149	0x3c906952	0.017628346
150	0x3b956419	0.0045590517
151	0xbcfdacd1	-0.030966194
152	0x3d7ae068	0.061249167
153	0x3deab498	0.11460227
154	0xbd315119	-0.04329023
155	0xbc5772af	-0.013149901
156	0x3d829f82	0.0637808
157	0xbd3612e2	-0.0444516
158	0x3c9d4860	0.01919955
159	0x3d7a5a14	0.06112106
160	0x3e4ced17	0.20012318
161	0xbdfb2519	-0.12262935
162	0xbd6afc3b	-0.057369452
163	0xbdf71caa	-0.12066014
164	0xbbb9b11e	-0.005666866
165	0xbd4e79be	-0.05040907
166	0x3e00626a	0.12537542
167	0xbd05f88d	-0.03270774
168	0x3dc6d422	0.0970843
169	0x3d2782ea	0.040896334
170	0xbd370fd8	-0.044692844
171	0x3d48a8f3	0.048989248
172	0xbdcb0fba	-0.09915109
173	0xba91839c	-0.0011101845
174	0x3d88d483	0.066811584
175	0x3d9f933e	0.07791756
176	0xbd36585a	-0.044517852
177	0xbbf3842d	-0.007431528
178	0x3e091904	0.13388449
179	0x3cf72b42	0.030171994
180	0xbdd33bb7	-0.10314124
181	0x3e2d196e	0.16904232
182	0x3dcc0b2b	0.099630676
183	0xbd77e800	-0.060523987
184	0x3e016b9e	0.12638709
185	0xbe765153	-0.2405446
186	0xbc0e3631	-0.008679912
187	0x3ce4e41c	0.027940802
188	0xbd836a3a	-0.064167455
189	0xbd14a180	-0.03628683
190	0x3c398018	0.011322044
191	0x3d4b7d3a	0.049679972
192	0x3e34c8bb	0.17654698
193	0x3e506710	0.20351815
194	0x3d431ac4	0.047632948
195	0xbe9fa2bc	-0.31178844
196	0x3cd513c8	0.026010409
197	0x3c812dfd	0.015769
198	0xbe1e77cf	-0.15475391
199	0xbe227caa	-0.15867868
200	0xbdab98cc	-0.08378753
201	0xbe3868cb	-0.18008725
202	0xbc9ebf7c	-0.019378416
203	0x3de669ad	0.11250625
204	0xbe915ff0	-0.28393507
205	0x3d6cdb1d	0.05782615
206	0xbe886561	-0.26639846
207	0xbf04e8e8	-0.51917887
208	0x3c9a4a3c	0.018834226
209	0x3da00a13	0.078144215
210	0xbe40a449	-0.1881267
211	0xbcd62c7a	-0.026144255
212	0xbf10fa13	-0.5663158
213	0xbd948184	-0.07251266
214	0xbe5ed36b	-0.21760337
215	0xbe95662c	-0.29179513
216	0x3e6fb9ca	0.23410717
217	0x3d4d9c0e	0.050197653
218	0xbea95d02	-0.33078772
219	0xbd3596a6	-0.044333123
220	0xbd8b8204	-0.06811908
221	0xbe02bde6	-0.12767753
222	0xbe72332a	-0.2365233
223	0xbc2b5cb0	-0.01045911
224	0x3d9c6de3	0.07638147
225	0x3cbf2e56	0.023337524
226	0xbbae083a	-0.0053110393
227	0x3d28d397	0.041217413
228	0xbe48f02c	-0.19622868
229	0xbe99bcc0	-0.30026817
230	0x3ce08e49	0.027411597
231	0xbe45656b	-0.19276969
232	0xbdaa4c60	-0.083153486
233	0xbe18aa81	-0.14908792
234	0xbe89d0be	-0.2691707
235	0xbde5a544	-0.112131625
236	0xbebbfc44	-0.367159
237	0x3be43116	0.0069638593
238	0x3d323475	0.04350706
239	0xbebb3131	-0.36560968
240	0x3e85faa6	0.26167792
241	0xbe51e4a0	-0.2049737
242	0x3d808b5c	0.06276581
243	0xbe808c04	-0.25106823
244	0xbdd67101	-0.104707725
245	0x3d29401f	0.041320916
246	0x3c69766a	0.0142494235
247	0xbd4ff0c8	-0.050766736
248	0x3ddf16d2	0.108930245
249	0x3d36cf70	0.04463142
250	0xbe93cef2	-0.28868824
251	0xbe897701	-0.26848605
252	0xbf0f32e2	-0.55937016
253	0xbd62baac	-0.055353805
254	0xbe71441e	-0.23561141
255	0xbe3e32f1	-0.1857412

fcs.1.weight f4 [2, 64]
0	0x3ed7ae32	0.42125088
1	0x3e2e4a41	0.17020513
2	0x3d35ef16	0.044417463
3	0x3e32641b	0.17421
4	0xbe25365c	-0.16134018
5	0xbe31e968	-0.17374194
6	0x3ecd8a03	0.40144357
7	0x3dfd2285	0.123601
8	0x3eee7d72	0.46580082
9	0x3ed2f7e2	0.41204745
10	0xbeac3340	-0.3363285
11	0x3db11085	0.08645729
12	0x3ee467b9	0.44610384
13	0xbd582bf5	-0.052776296
14	0x3dbf41d4	0.093387276
15	0x3dd6e7cb	0.1049343
16	0xbee02e74	-0.4378544
17	0xbdd01ed6	-0.101621315
18	0x3ef6f520	0.4823389
19	0xbed8ca02	-0.4234162
20	0x3eb89702	0.3605271
21	0x3ecd5aa0	0.40108204
22	0x3f196b3c	0.5992925
23	0x3ef3e7a7	0.47637674
24	0x3f13338d	0.57500535
25	0xbf14c8c1	-0.58118826
26	0x3ebbabb4	0.36654437
27	0x3ebf0ac2	0.37312895
28	0x3ebe840d	0.37210122
29	0x3f13d75c	0.5775049
30	0x3ee21eae	0.44164032
31	0xbde735f1	-0.112895854
32	0xbe5767f2	-0.21035746
33	0xbf121d83	-0.5707628
34	0xbf06645e	-0.524969
35	0xbeba5a7c	-0.3639716
36	0x3d5783de	0.052615993
37	0x3f019663	0.50620097
38	0xbecc3397	-0.3988311
39	0x3ede50a4	0.434209
40	0x3edc90ed	0.4307932
41	0x3ef61b36	0.48067635
42	0x3ecb0d6d	0.3965868
43	0x3ec55a00	0.38545227
44	0x3da5f962	0.081042066
45	0xbe31cafa	-0.17362586
46	0xbe3fa88a	-0.18716636
47	0x3ec584c1	0.38577846
48	0x3eafd66b	0.34343275
49	0x3e50a2eb	0.20374648
50	0xbe11dbc2	-0.14243987
51	0x3e8c892a	0.27448398
52	0x3edcdc20	0.43136692
53	0xbf0602f9	-0.52348286
54	0xbe347623	-0.1762319
55	0x3ed150ed	0.40882054
56	0xbe444c8a	-0.19169822
57	0xbee6bdf8	-0.4506681
58	0x3e90a88b	0.28253588
59	0x3ef7405a	0.48291284
60	0x3ecb8c62	0.3975554
61	0xbe3dc883	-0.1853352
62	0x3ed4cc26	0.41562003
63	0x3eed3eb7	0.4633691
64	0xbdd6de49	-0.10491616
65	0xbee72b4d	-0.45150223
66	0x3f2dc6de	0.6788157
67	0xbef2760c	-0.47355688
68	0x3eae74b4	0.34073412
69	0x3ee693c6	0.45034617
70	0xbd9dc6c6	-0.07703929
71	0xbf134303	-0.57524127
72	0x3f04f28f	0.51932615
73	0x3d5c9cfe	0.053860657
74	0x3ee753b7	0.45181057
75	0xbf08f61c	-0.53500533
76	0xbe39fe99	-0.18163528
77	0x3ef1b31f	0.4720697
78	0xbf13315c	-0.5749719
79	0xbf1cad59	-0.6120201
80	0x3ed978a9	0.4247487
81	0xbefe285e	-0.49640173
82	0x3e1dacb5	0.15397914
83	0x3efe5db7	0.49680874
84	0xbe87aa68	-0.26497197
85	0xbea04ece	-0.31310123
86	0xbddb3a93	-0.107045315
87	0x3c9a2f41	0.01882136
88	0x3dbeb86e	0.09312521
89	0x3e8e95c8	0.2784865
90	0xbe2c5e90	-0.16832948
91	0x3ee34ca5	0.44394413
92	0xbe34cd7d	-0.17656513
93	0x3ebd8bbb	0.37020668
94	0xbe2d1264	-0.16901547
95	0x3ed908f6	0.4238965
96	0x3ec89270	0.39174223
97	0x3e77aba2	0.24186566
98	0x3e931060	0.2872343
99	0x3eac3054	0.3363062
100	0xbf0a102a	-0.53930914
101	0x3dfbc43e	0.122932896
102	0x3ec02f62	0.3753615
103	0x3eaad32b	0.33364233
104	0xbd7d9dad	-0.06191795
105	0x3d792efe	0.06083583
106	0xbca70dff	-0.020392416
107	0xbe971018	-0.29504466
108	0xbf0a89dc	-0.54116607
109	0x3ee85039	0.45373705
110	0x3ecef104	0.40418255
111	0xbe84c013	-0.2592779
112	0xbe68875b	-0.22707884
113	0xbedc0860	-0.4297514
114	0x3edeae89	0.43492535
115	0xbe59caf3	-0.21268825
116	0x3ed3f43e	0.4139728
117	0x3eb51d4d	0.35373917
118	0x3ec557f8	0.38543677
119	0x3ebf8133	0.3740326
120	0x3ebd0f00	0.36925507
121	0x3ec9ef1e	0.39440244
122	0xbebc86ac	-0.36821496
123	0xbc9897cf	-0.018627075
124	0xbe8c868d	-0.27446404
125	0x3ecb0191	0.39649633
126	0xbe8ff998	-0.28120112
127	0xbd2f97cd	-0.042869378

gat_layers.0.attn_l f4 [1, 1, 64]
0	0x3e5c9d84	0.21544462
1	0x3db1300c	0.08651742
2	0xbe6e85f2	-0.23293284
3	0xbe5e9559	-0.21736659
4	0xbc9cadb7	-0.019125802
5	0xbe2308d6	-0.1592134
6	0x3e8850b7	0.2662408
7	0x3e6192f4	0.22028714
8	0x3eb264a3	0.34842405
9	0x3d878cfa	0.06618686
10	0x3dd6c37c	0.104865044
11	0xbea0e1e3	-0.31422338
12	0xbe2cdb61	-0.16880561
13	0x3c7e46da	0.015519822
14	0xbea3210c	-0.3186115
15	0xbd810dfc	-0.063014954
16	0xbe11be0d	-0.14232655
17	0x3d3f819b	0.04675446
18	0x3da69cb0	0.081353545
19	0x3e19bc96	0.15013346
20	0xbe816edb	-0.2527989
21	0x3cae09c9	0.0212449
22	0xbeb5cb1b	-0.3550652
23	0xbd9eaf79	-0.077483125
24	0x3e8f3037	0.27966473
25	0x3e546560	0.20741796
26	0x3e725cf0	0.23668265
27	0x3d59e583	0.053197395
28	0x3dda8756	0.106703445
29	0xbeb67b91	-0.3564115
30	0xbe56da15	-0.20981629
31	0x3eb36e38	0.35045028
32	0x3e4f795c	0.20261139
33	0x3dd774ef	0.1052035
34	0xbd42125e	-0.047380798
35	0x3e0de7f2	0.13858011
36	0xbe3108ab	-0.17288463
37	0x3dab3c54	0.08361116
38	0x3ed8d1b0	0.4234748
39	0x3e269990	0.16269517
40	0xbe3940d5	-0.18091138
41	0x3dbfcd8a	0.09365375
42	0xbd825feb	-0.06365951
43	0xbd4702e2	-0.048586734
44	0x3d426343	0.047457945
45	0x3e6617b5	0.22469981
46	0xbde70083	-0.112793945
47	0x3d8e2068	0.06939775
48	0xbe479f34	-0.19494325
49	0xbdfe1f3f	-0.124083035
50	0x3dd26778	0.10273641
51	0xbde1143a	-0.10990186
52	0x3e607df3	0.21923046
53	0x3dc5545b	0.0963523
54	0xbdc52c89	-0.09627635
55	0xbe6dcc3e	-0.23222443
56	0xbde23a49	-0.11046273
57	0x3e090097	0.13379131
58	0x3daaebb4	0.08345738
59	0x3e824ddf	0.25450036
60	0xba30fd48	-0.0006751609
61	0xbd9df8ad	-0.07713447
62	0x3ec30f8a	0.38097793
63	0xbdfcefa4	-0.12350395

gat_layers.0.attn_r f4 [1, 1, 64]
0	0xbdb5b7d5	-0.08872954
1	0x3d9be13d	0.0761132
2	0x3dc8cc84	0.09804633
3	0xbd799529	-0.060933266
4	0xbda286eb	-0.0793589
5	0x3d817fd1	0.06323207
6	0xbdfc7734	-0.12327424
7	0xbcabfd6f	-0.02099487
8	0xbd85c6ec	-0.06532082
9	0x3d3a3bee	0.04546731
10	0x3dc716bb	0.09721132
11	0x3ce3f0e9	0.027824836
12	0xbc2a5639	-0.010396534
13	0x3a3f756e	0.000730357
14	0xbe3042ec	-0.17213029
15	0xbc201321	-0.009770186
16	0xbe932279	-0.28737238
17	0x3dc20f0e	0.09475528
18	0x3e54719e	0.20746467
19	0x3cacf06a	0.021110732
20	0xbe18ce41	-0.1492243
21	0xbccc32f9	-0.02492665
22	0xbdc57ed1	-0.09643329
23	0xbd46200c	-0.048370406
24	0x3e3aa2dd	0.1822619
25	0xbdc07ed1	-0.09399188
26	0x3df36408	0.11884314
27	0x3e4f5e05	0.2025071
28	0x3d988216	0.07446687
29	0xbb987084	-0.004652085
30	0xbce60668	-0.028079227
31	0x3d3badf7	0.045820203
32	0x3bbd73a9	0.00578161
33	0xbdd822ef	-0.10553538
34	0xbca91ab8	-0.020642623
35	0x3dfe364e	0.124127015
36	0x3e3a8e64	0.1821838
37	0xbe389cf2	-0.1802862
38	0x3dcfc279	0.101445146
39	0x3d528b0b	0.051402133
40	0x3db8bd19	0.090204425
41	0xbd11d7c2	-0.035606153
42	0x3d880851	0.06642211
43	0x3c47464f	0.012162759
44	0x3cfad9a0	0.03062135
45	0xbcf57fa8	-0.029968098
46	0xbd737965	-0.059441943
47	0xbdb97380	-0.09055233
48	0x3de03aca	0.10948713
49	0xbd25c7ba	-0.040473677
50	0xbe0189b1	-0.12650181
51	0x3b09e2f3	0.0021039813
52	0x3c4a42e8	0.012345053
53	0xbdf423be	-0.1192088
54	0xbca92c89	-0.020651119
55	0xbdbf69bb	-0.09346338
56	0x3d803384	0.06259826
57	0xbd888f06	-0.066679046
58	0x3e007e9b	0.12548296
59	0x3dfe537e	0.124182686
60	0x3daa6ee7	0.08321934
61	0xbe15cb29	-0.1462828
62	0x3dd8f6cf	0.1059395
63	0x3c282fce	0.010265304

gat_layers.0.fc.weight f4 [64, 55]
0	0xbd10c56a	-0.03534452
1	0x3c29f701	0.010373832
2	0xbce33b69	-0.02773829
3	0x3dbe4171	0.09289826
4	0xbd3b8055	-0.045776684
5	0xbe02f10d	-0.12787266
6	0x3d2c8f73	0.04212899
7	0xbdc4c7bb	-0.09608408
8	0x3cd5d53f	0.02610266
9	0x3c5b185c	0.013372507
10	0x3cc46dc4	0.023978122
11	0x3cf790aa	0.030220348
12	0xbcbf106b	-0.023323258
13	0x3e10d4c6	0.14143667
14	0xbdb83746	-0.089949176
15	0xbd9f0e2a	-0.077663735
16	0xbcf06ebe	-0.029349681
17	0xbe07f759	-0.1327795
18	0xbdad0137	-0.08447497
19	0xbb11c251	-0.0022241066
20	0xbd338ba9	-0.043834362
21	0x3aa049ae	0.001222899
22	0xbd91f107	-0.071260504
23	0xbd8fe45a	-0.070259765
24	0x3c91add3	0.017783081
25	0x3b34e938	0.002760483
26	0xbcca5277	-0.024697525
27	0xbd585b2b	-0.05282132
28	0x3cf2741c	0.02959638
29	0xbe0d27be	-0.13784692
30	0xbd2328b5	-0.039833743
31	0xbd33d426	-0.043903492
32	0xbc1832cc	-0.009289455
33	0xbdf1ddc6	-0.11809878
34	0x3d544ce7	0.051831152
35	0x3c027096	0.007961413
36	0xbc73a771	-0.014871464
37	0xbbe5aee4	-0.007009374
38	0xbc92268e	-0.01784065
39	0xbe892993	-0.2678953
40	0xbd87ab62	-0.066244856
41	0xbd3ce658	-0.04611811
42	0xbcc2dee8	-0.02378793
43	0xbc4bab3d	-0.012430963
44	0x3b239628	0.0024961326
45	0x3cd3f54f	0.025873808
46	0x3e07eb95	0.13273461
47	0x3d8412ba	0.06448884
48	0x3e2a7fc5	0.16650303
49	0xbc87c87d	-0.016575092
50	0x3cebebbc	0.02879893
51	0xbd9d5165	-0.076815404
52	0x3dbfa5bd	0.09357784
53	0x3da414cc	0.08011779
54	0xbd110df3	-0.035413694
55	0xbabb16b9	-0.001427374
56	0xbdc14191	-0.09436334
57	0xbd36cfb6	-0.044631682
58	0xbdf59d7c	-0.119929284
59	0xbd62b21a	-0.055345632
60	0x3d3f9ea9	0.04678217
61	0x3d99630a	0.07489593
62	0x3c9d7332	0.019219968
63	0xbdb18216	-0.0866739
64	0x3d170ff6	0.036880456
65	0xbd503ade	-0.05083739
66	0x3e0c83f1	0.13722207
67	0x3c65ecbe	0.0140334945
68	0x3dc25241	0.09488345
69	0xbcdd130b	-0.02698662
70	0x3cb870f0	0.02251479
71	0x3b770fc0	0.0037698597
72	0x3cb77d62	0.022398654
73	0x3d8ccf1a	0.06875439
74	0x3d476814	0.04868324
75	0xbda35fd3	-0.079772614
76	0xbd8b05f6	-0.06788246
77	0x3d941df3	0.07232275
78	0xbda6e4a6	-0.0814908
79	0xbd80c565	-0.0628765
80	0x3e8c7ede	0.27440542
81	0xbc2c5de2	-0.01052043
82	0xbe2bd1b5	-0.16779216
83	0x3db1b844	0.08677724
84	0x3cc58cc4	0.024114974
85	0x3e0d413e	0.13794419
86	0x3d87d275	0.06631938
87	0x3e118027	0.14209042
88	0x3d5a196f	0.05324691
89	0xbb22074d	-0.002472359
90	0xbd361b01	-0.044459347
91	0x3df6f719	0.12058849
92	0x3d8afb40	0.067862034
93	0x3c958b34	0.018254854
94	0xbd93e187	-0.0722075
95	0xbe23158b	-0.15926187
96	0xbcd79f38	-0.026321039
97	0xbc5b469a	-0.013383532
98	0xbce14542	-0.027498845
99	0x3dc7d8b7	0.09758132
100	0xbccf00dc	-0.025268964
101	0x3cf4ca7f	0.029881714
102	0x3db77ac1	0.0895896
103	0xbe14c45b	-0.14528029
104	0xbdb8d376	-0.09024708
105	0xbe6760e0	-0.22595549
106	0x3e31b16e	0.1735284
107	0x3dc56aa1	0.096394785
108	0xbd1784da	-0.03699193
109	0x3d9c6993	0.07637324
110	0x3d97ac69	0.074059315
111	0x3e06ac86	0.1315175
112	0x3db94e6c	0.09048161
113	0x3deb8bc4	0.115012676
114	0x3da699d7	0.08134811
115	0x3e1409dc	0.14456886
116	0x3cabecec	0.020986997
117	0xbe009d74	-0.12560064
118	0xbe2ba83e	-0.16763398
119	0xbe362dbd	-0.17790885
120	0xbe887975	-0.26655164
121	0xbe213c43	-0.15745644
122	0xbe2e4acc	-0.1702072
123	0xbd24e7e8	-0.040260226
124	0xbe53a21e	-0.20667312
125	0xbe2f369e	-0.17110679
126	0xbd82473e	-0.063612446
127	0x3e4b7591	0.19869067
128	0x3c8e3383	0.017358547
129	0xbccf7f47	-0.025329245
130	0xbdd25827	-0.1027072
131	0x3ddfa46d	0.109200336
132	0x3e2aea81	0.16691019
133	0xbd76eec7	-0.06028631
134	0x3dfcb576	0.123392984
135	0x3d37ccf0	0.044873178
136	0xbd64998d	-0.0558105
137	0x3da3f63a	0.08005948
138	0xbe27ca97	-0.16385876
139	0xbd444768	-0.04791966
140	0xbda55bcb	-0.08074149
141	0x3db8beff	0.090208046
142	0x3dbfe4ec	0.09369835
143	0xbdce0406	-0.10059361
144	0xbcbc8d6f	-0.02301666
145	0x3d581664	0.05275573
146	0xbd8f2079	-0.069886155
147	0xbb4599ac	-0.003015141
148	0x3c819b1a	0.015821029
149	0xbd835e02	-0.06414415
150	0x3e120e5d	0.14263292
151	0x3d570cac	0.05250232
152	0x3d9147cb	0.070937715
153	0x3dc49d66	0.09600334
154	0x3e2fd353	0.17170458
155	0x3cf0b803	0.029384619
156	0xbe1865e9	-0.14882626
157	0x3d3d2c44	0.046184793
158	0xbc412d73	-0.011790621
159	0x3e92b46a	0.2865327
160	0xbdcf5c1d	-0.10124991
161	0x3df499f8	0.1194343
162	0x3e2e9f39	0.17052926
163	0x3e214f85	0.1575299
164	0x3d790aea	0.060801424
165	0x3b37f339	0.0028068556
166	0x3dc8792e	0.09788738
167	0x3d104c75	0.035229165
168	0x3d9b17e7	0.075729184
169	0x3cf472fb	0.029839983
170	0x3c866dc2	0.016409758
171	0xbc842e94	-0.016135491
172	0xbe1aff7b	-0.1513652
173	0xbdb4463a	-0.08802457
174	0xbdfddc82	-0.12395574
175	0xbadcd434	-0.001684791
176	0xbe04d742	-0.1297274
177	0x3de51290	0.11185181
178	0xbd4ed9cf	-0.050500687
179	0xbcb494be	-0.022043582
180	0xbbf16d16	-0.0073677404
181	0xbd0e47c2	-0.034736402
182	0x3d74c1c8	0.059755117
183	0xbc2e4b40	-0.010638058
184	0xbd6f08ce	-0.058358006
185	0x3d23a7d4	0.039954975
186	0x3d239f72	0.03994698
187	0x3d06c045	0.032898206
188	0x3d5bcccc	0.053662106
189	0x3d8dabb0	0.069175124
190	0x3ca113dd	0.019662792
191	0x3d4c6d46	0.0499089
192	0x3db2e63b	0.08735319
193	0x3d7c3e2e	0.061582737
194	0x3dc06fd3	0.09396329
195	0xbad65594	-0.0016352409
196	0x3e36c4b1	0.1784847
197	0xbdec8ab2	-0.115498915
198	0x3d7dd149	0.061967168
199	0xbc0ee522	-0.008721622
200	0x3c782e41	0.015147747
201	0x3d2786d9	0.040900085
202	0xbce00ec6	-0.027350795
203	0xbc9a032d	-0.018800342
204	0xbe4400b5	-0.19140895
205	0x3ea56641	0.32304576
206	0x3dbbf85e	0.09178232
207	0x3d5c3875	0.05376478
208	0xbcff6912	-0.031178031
209	0xbd5348c2	-0.05158306
210	0x3d9b7f2d	0.07592616
211	0x3e03e357	0.12879692
212	0xbd904758	-0.07044858
213	0x3d6b3b38	0.057429522
214	0xbdd3613d	-0.10321281
215	0x3de0e93d	0.10981987
216	0x3ce2e6ba	0.02769791
217	0x3d801061	0.06253124
218	0x3cd492f0	0.025948972
219	0x3e628e84	0.22124678
220	0xbb22d1e0	-0.0024844334
221	0x3d14613d	0.036225546
222	0x3c38621b	0.011253859
223	0x3d486d48	0.048932344
224	0xbba28b4f	-0.0049604545
225	0xbc7afee1	-0.015319557
226	0xbcf89664	-0.03034515
227	0x3bd26b82	0.0064215073
228	0xbd3061c9	-0.043062005
229	0xbcf63202	-0.030053142
230	0x3d31e941	0.04343534
231	0xbbde48ef	-0.0067835967
232	0xbd0e32e0	-0.034716487
233	0x3cb415d8	0.021983072
234	0xbe325fe0	-0.17419386
235	0x3dd479d1	0.10374797
236	0xbbd98e66	-0.0066392897
237	0xbb933aab	-0.0044930778
238	0xbd0f92cf	-0.035052117
239	0xbc787d52	-0.015166597
240	0xbb81a8f9	-0.0039569107
241	0x3c2ebdcd	0.010665369
242	0x3caf34cf	0.021387486
243	0x3b069bbe	0.0020539607
244	0x3cc75e33	0.02433691
245	0x3bdf2655	0.0068099895
246	0x3cc02455	0.023454824
247	0x3d48b1ef	0.048997816
248	0xbd68e679	-0.05686042
249	0x3d0bcef6	0.03413292
250	0xbcacb8fb	-0.0210843
251	0xbd9d594a	-0.07683046
252	0xbc9910d5	-0.018684784
253	0xbca52a99	-0.020161914
254	0x3d489786	0.04897263
255	0x3bbbc677	0.005730446

gat_layers.1.attn_l f4 [1, 1, 2]
0	0x3f67dd3d	0.9057196
1	0x3df2b215	0.11850373

gat_layers.1.attn_r f4 [1, 1, 2]
0	0xbdf5ff28	-0.12011558
1	0xbf016331	-0.5054198

gat_layers.1.bias f4 [2]
0	0xbe369cd1	-0.17833258
1	0x3e369cd4	0.17833263

gat_layers.1.fc.weight f4 [2, 64]
0	0xbdd1e5d7	-0.102489166
1	0x3e9a700a	0.30163604
2	0xbec14b75	-0.37752882
3	0xbd8f6b0a	-0.07002838
4	0xbcd64ac3	-0.026158696
5	0xbda71fca	-0.0816036
6	0x3dd6827c	0.10474107
7	0x3e5fec57	0.218675
8	0x3dede3e2	0.11615731
9	0xbd6f656c	-0.058446333
10	0xbd1ee39f	-0.038791295
11	0x3e016f60	0.12640142
12	0x3ef93b7e	0.486782
13	0xbd6af1cb	-0.057359498
14	0xbe965c93	-0.29367504
15	0x3e1b60b2	0.15173605
16	0xbf238d1a	-0.6388718
17	0x3e839df8	0.25706458
18	0x3ce6b016	0.028160136
19	0xbf0acc99	-0.5421844
20	0xbe4787be	-0.19485375
21	0xbd94b0eb	-0.07260307
22	0xbda1f0ee	-0.07907282
23	0xbe85d0db	-0.26135907
24	0x3e80c11f	0.2514734
25	0x3e048acb	0.1294357
26	0xbe7c7db2	-0.24657324
27	0x3d23c39c	0.03998147
28	0xbe03b729	-0.12862839
29	0xbe861e24	-0.2619487
30	0xbcdaec33	-0.026723957
31	0xbebbda06	-0.36689776
32	0xbcae92f4	-0.021310307
33	0x3db625d1	0.08893932
34	0x3dec8386	0.115485236
35	0xbe0c4cd2	-0.1370118
36	0xbe7a5045	-0.24444683
37	0xbe627968	-0.22116625
38	0xbe3435ec	-0.17598695
39	0xbd9f2901	-0.07771493
40	0xbe2e6dc3	-0.17034058
41	0xbe2cda9d	-0.1688027
42	0x3e04998d	0.129492
43	0xbe0bf9a7	-0.13669454
44	0x3d1fad80	0.038983822
45	0xbd127f76	-0.035766087
46	0x3d8fe990	0.070269704
47	0xbe7318d2	-0.23739937
48	0x3e2ae0ff	0.16687392
49	0x3e3563f7	0.17713915
50	0x3e19b58e	0.15010664
51	0x3e2eb3ed	0.17060824
52	0xbe8a198f	-0.26972625
53	0x3d9341ef	0.0719031
54	0x3e77d6ae	0.24202988
55	0x3ea58c95	0.32333818
56	0xbe9e6dd0	-0.30943155
57	0xbf28fe3a	-0.6601292
58	0x3dc71107	0.097200446
59	0xbdd23171	-0.102633364
60	0xbe54fbfc	-0.2079925
61	0xbe3fed52	-0.18742874
62	0xbe37a5ea	-0.17934385
63	0xbeb13a85	-0.3461496
64	0x3dbbebc5	0.09175829
65	0xbd9ba72a	-0.076002434
66	0x3e2d8537	0.16945349
67	0x3e1264cf	0.14296268
68	0x3e09d0b0	0.13458514
69	0x3d0f0730	0.034918964
70	0xbe83f747	-0.25774595
71	0xbe618daa	-0.22026697
72	0x3d4e71bb	0.05040143
73	0x3f037325	0.5134757
74	0xbe9aa433	-0.302034
75	0xbefc9c3b	-0.49337944
76	0xbe645672	-0.22298601
77	0xbd77336c	-0.060351774
78	0x3e02c89a	0.12771836
79	0x3ce8c4bc	0.028414123
80	0x3ec4f4c0	0.3846798
81	0xbea48edf	-0.32140252
82	0xbe6f2ab1	-0.23356129
83	0x3e9c484e	0.30523914
84	0x3da82e00	0.08211899
85	0xbbebcbd2	-0.007195928
86	0x39d21522	0.00040070066
87	0x3e347b5b	0.17625181
88	0xbe365fcf	-0.17809986
89	0x3e8237f9	0.2543333
90	0x3ba9427f	0.0051653977
91	0xbe6af246	-0.22943982
92	0xbddff02e	-0.109344825
93	0xbcef9263	-0.029244607
94	0xbe8e0d81	-0.27744678
95	0xbbf1e6d2	-0.0073822523
96	0xbe93e9a0	-0.2888918
97	0xbee65ba9	-0.44991806
98	0xbd213ff5	-0.039367635
99	0x3e5380f0	0.20654655
100	0xbdff1613	-0.12455382
101	0x3ea345fe	0.31889337
102	0xbc4b3526	-0.012402808
103	0xbd1eeb9a	-0.038798906
104	0x3eae4381	0.34035876
105	0x3d6cf02b	0.05784623
106	0xbe939493	-0.2882429
107	0xbe51f458	-0.20503366
108	0xbdec07ee	-0.1152495
109	0xbee698b0	-0.45038366
110	0xbdf8c65c	-0.12147209
111	0xbec56d97	-0.38560173
112	0xbb39032b	-0.0028230648
113	0x3d6fb858	0.058525413
114	0xbf0694af	-0.52570623
115	0xbe9c3e90	-0.3051648
116	0x3bc68b1c	0.0060590636
117	0xbe9c6b7a	-0.30550748
118	0xbe57d783	-0.21078305
119	0x3d3d0d16	0.046155058
120	0x3e822c2f	0.25424334
121	0xbe1b6525	-0.15175302
122	0xbd949405	-0.07254795
123	0x3d463f3f	0.04840016
124	0xbeac4def	-0.3365321
125	0x3e884e6e	0.26622337
126	0xbdbebc2f	-0.09313237
127	0xbe325b5e	-0.17417666
